…
/usr/local/lib/python3.10/dist-packages/torchvision/models/_utils.py:223: UserWarning: Arguments other than a weight enum or `None` for 'weights' are deprecated since 0.13 and may be removed in the future. The current behavior is equivalent to passing `weights=EfficientNet_B4_Weights.IMAGENET1K_V1`. You can also use `weights=EfficientNet_B4_Weights.DEFAULT` to get the most up-to-date weights.
  warnings.warn(msg)
Downloading: "https://download.pytorch.org/models/efficientnet_b4_rwightman-23ab8bcd.pth" to /root/.cache/torch/hub/checkpoints/efficientnet_b4_rwightman-23ab8bcd.pth
100%|██████████| 74.5M/74.5M [00:00<00:00, 181MB/s]
MyModel_EfficientNetB4(
  (backbone): EfficientNet(
    (features): Sequential(
      (0): Conv2dNormActivation(
        (0): Conv2d(3, 48, kernel_size=(3, 3), stride=(2, 2), padding=(1, 1), bias=False)
        (1): BatchNorm2d(48, eps=1e-05, momentum=0.1, affine=True, track_running_stats=True)
        (2): SiLU(inplace=True)
      )
      (1): Sequential(
        (0): MBConv(
          (block): Sequential(
            (0): Conv2dNormActivation(
              (0): Conv2d(48, 48, kernel_size=(3, 3), stride=(1, 1), padding=(1, 1), groups=48, bias=False)
              (1): BatchNorm2d(48, eps=1e-05, momentum=0.1, affine=True, track_running_stats=True)
              (2): SiLU(inplace=True)
            )
            (1): SqueezeExcitation(
              (avgpool): AdaptiveAvgPool2d(output_size=1)
              (fc1): Conv2d(48, 12, kernel_size=(1, 1), stride=(1, 1))
              (fc2): Conv2d(12, 48, kernel_size=(1, 1), stride=(1, 1))
              (activation): SiLU(inplace=True)
              (scale_activation): Sigmoid()
            )
            (2): Conv2dNormActivation(
              (0): Conv2d(48, 24, kernel_size=(1, 1), stride=(1, 1), bias=False)
              (1): BatchNorm2d(24, eps=1e-05, momentum=0.1, affine=True, track_running_stats=True)
            )
          )
          (stochastic_depth): StochasticDepth(p=0.0, mode=row)
        )
        (1): MBConv(
          (block): Sequential(
            (0): Conv2dNormActivation(
              (0): Conv2d(24, 24, kernel_size=(3, 3), stride=(1, 1), padding=(1, 1), groups=24, bias=False)
              (1): BatchNorm2d(24, eps=1e-05, momentum=0.1, affine=True, track_running_stats=True)
              (2): SiLU(inplace=True)
            )
            (1): SqueezeExcitation(
              (avgpool): AdaptiveAvgPool2d(output_size=1)
              (fc1): Conv2d(24, 6, kernel_size=(1, 1), stride=(1, 1))
              (fc2): Conv2d(6, 24, kernel_size=(1, 1), stride=(1, 1))
              (activation): SiLU(inplace=True)
              (scale_activation): Sigmoid()
            )
            (2): Conv2dNormActivation(
              (0): Conv2d(24, 24, kernel_size=(1, 1), stride=(1, 1), bias=False)
              (1): BatchNorm2d(24, eps=1e-05, momentum=0.1, affine=True, track_running_stats=True)
            )
          )
          (stochastic_depth): StochasticDepth(p=0.00625, mode=row)
        )
      )
      (2): Sequential(
        (0): MBConv(
          (block): Sequential(
            (0): Conv2dNormActivation(
              (0): Conv2d(24, 144, kernel_size=(1, 1), stride=(1, 1), bias=False)
              (1): BatchNorm2d(144, eps=1e-05, momentum=0.1, affine=True, track_running_stats=True)
              (2): SiLU(inplace=True)
            )
            (1): Conv2dNormActivation(
              (0): Conv2d(144, 144, kernel_size=(3, 3), stride=(2, 2), padding=(1, 1), groups=144, bias=False)
              (1): BatchNorm2d(144, eps=1e-05, momentum=0.1, affine=True, track_running_stats=True)
              (2): SiLU(inplace=True)
            )
            (2): SqueezeExcitation(
              (avgpool): AdaptiveAvgPool2d(output_size=1)
              (fc1): Conv2d(144, 6, kernel_size=(1, 1), stride=(1, 1))
              (fc2): Conv2d(6, 144, kernel_size=(1, 1), stride=(1, 1))
              (activation): SiLU(inplace=True)
              (scale_activation): Sigmoid()
            )
            (3): Conv2dNormActivation(
              (0): Conv2d(144, 32, kernel_size=(1, 1), stride=(1, 1), bias=False)
              (1): BatchNorm2d(32, eps=1e-05, momentum=0.1, affine=True, track_running_stats=True)
            )
          )
          (stochastic_depth): StochasticDepth(p=0.0125, mode=row)
        )
        (1): MBConv(
          (block): Sequential(
            (0): Conv2dNormActivation(
              (0): Conv2d(32, 192, kernel_size=(1, 1), stride=(1, 1), bias=False)
              (1): BatchNorm2d(192, eps=1e-05, momentum=0.1, affine=True, track_running_stats=True)
              (2): SiLU(inplace=True)
            )
            (1): Conv2dNormActivation(
              (0): Conv2d(192, 192, kernel_size=(3, 3), stride=(1, 1), padding=(1, 1), groups=192, bias=False)
              (1): BatchNorm2d(192, eps=1e-05, momentum=0.1, affine=True, track_running_stats=True)
              (2): SiLU(inplace=True)
            )
            (2): SqueezeExcitation(
              (avgpool): AdaptiveAvgPool2d(output_size=1)
              (fc1): Conv2d(192, 8, kernel_size=(1, 1), stride=(1, 1))
              (fc2): Conv2d(8, 192, kernel_size=(1, 1), stride=(1, 1))
              (activation): SiLU(inplace=True)
              (scale_activation): Sigmoid()
            )
            (3): Conv2dNormActivation(
              (0): Conv2d(192, 32, kernel_size=(1, 1), stride=(1, 1), bias=False)
              (1): BatchNorm2d(32, eps=1e-05, momentum=0.1, affine=True, track_running_stats=True)
            )
          )
          (stochastic_depth): StochasticDepth(p=0.018750000000000003, mode=row)
        )
        (2): MBConv(
          (block): Sequential(
            (0): Conv2dNormActivation(
              (0): Conv2d(32, 192, kernel_size=(1, 1), stride=(1, 1), bias=False)
              (1): BatchNorm2d(192, eps=1e-05, momentum=0.1, affine=True, track_running_stats=True)
              (2): SiLU(inplace=True)
            )
            (1): Conv2dNormActivation(
              (0): Conv2d(192, 192, kernel_size=(3, 3), stride=(1, 1), padding=(1, 1), groups=192, bias=False)
              (1): BatchNorm2d(192, eps=1e-05, momentum=0.1, affine=True, track_running_stats=True)
              (2): SiLU(inplace=True)
            )
            (2): SqueezeExcitation(
              (avgpool): AdaptiveAvgPool2d(output_size=1)
              (fc1): Conv2d(192, 8, kernel_size=(1, 1), stride=(1, 1))
              (fc2): Conv2d(8, 192, kernel_size=(1, 1), stride=(1, 1))
              (activation): SiLU(inplace=True)
              (scale_activation): Sigmoid()
            )
            (3): Conv2dNormActivation(
              (0): Conv2d(192, 32, kernel_size=(1, 1), stride=(1, 1), bias=False)
              (1): BatchNorm2d(32, eps=1e-05, momentum=0.1, affine=True, track_running_stats=True)
            )
          )
          (stochastic_depth): StochasticDepth(p=0.025, mode=row)
        )
        (3): MBConv(
          (block): Sequential(
            (0): Conv2dNormActivation(
              (0): Conv2d(32, 192, kernel_size=(1, 1), stride=(1, 1), bias=False)
              (1): BatchNorm2d(192, eps=1e-05, momentum=0.1, affine=True, track_running_stats=True)
              (2): SiLU(inplace=True)
            )
            (1): Conv2dNormActivation(
              (0): Conv2d(192, 192, kernel_size=(3, 3), stride=(1, 1), padding=(1, 1), groups=192, bias=False)
              (1): BatchNorm2d(192, eps=1e-05, momentum=0.1, affine=True, track_running_stats=True)
              (2): SiLU(inplace=True)
            )
            (2): SqueezeExcitation(
              (avgpool): AdaptiveAvgPool2d(output_size=1)
              (fc1): Conv2d(192, 8, kernel_size=(1, 1), stride=(1, 1))
              (fc2): Conv2d(8, 192, kernel_size=(1, 1), stride=(1, 1))
              (activation): SiLU(inplace=True)
              (scale_activation): Sigmoid()
            )
            (3): Conv2dNormActivation(
              (0): Conv2d(192, 32, kernel_size=(1, 1), stride=(1, 1), bias=False)
              (1): BatchNorm2d(32, eps=1e-05, momentum=0.1, affine=True, track_running_stats=True)
            )
          )
          (stochastic_depth): StochasticDepth(p=0.03125, mode=row)
        )
      )
      (3): Sequential(
        (0): MBConv(
          (block): Sequential(
            (0): Conv2dNormActivation(
              (0): Conv2d(32, 192, kernel_size=(1, 1), stride=(1, 1), bias=False)
              (1): BatchNorm2d(192, eps=1e-05, momentum=0.1, affine=True, track_running_stats=True)
              (2): SiLU(inplace=True)
            )
            (1): Conv2dNormActivation(
              (0): Conv2d(192, 192, kernel_size=(5, 5), stride=(2, 2), padding=(2, 2), groups=192, bias=False)
              (1): BatchNorm2d(192, eps=1e-05, momentum=0.1, affine=True, track_running_stats=True)
              (2): SiLU(inplace=True)
            )
            (2): SqueezeExcitation(
              (avgpool): AdaptiveAvgPool2d(output_size=1)
              (fc1): Conv2d(192, 8, kernel_size=(1, 1), stride=(1, 1))
              (fc2): Conv2d(8, 192, kernel_size=(1, 1), stride=(1, 1))
              (activation): SiLU(inplace=True)
              (scale_activation): Sigmoid()
            )
            (3): Conv2dNormActivation(
              (0): Conv2d(192, 56, kernel_size=(1, 1), stride=(1, 1), bias=False)
              (1): BatchNorm2d(56, eps=1e-05, momentum=0.1, affine=True, track_running_stats=True)
            )
          )
          (stochastic_depth): StochasticDepth(p=0.037500000000000006, mode=row)
        )
        (1): MBConv(
          (block): Sequential(
            (0): Conv2dNormActivation(
              (0): Conv2d(56, 336, kernel_size=(1, 1), stride=(1, 1), bias=False)
              (1): BatchNorm2d(336, eps=1e-05, momentum=0.1, affine=True, track_running_stats=True)
              (2): SiLU(inplace=True)
            )
            (1): Conv2dNormActivation(
              (0): Conv2d(336, 336, kernel_size=(5, 5), stride=(1, 1), padding=(2, 2), groups=336, bias=False)
              (1): BatchNorm2d(336, eps=1e-05, momentum=0.1, affine=True, track_running_stats=True)
              (2): SiLU(inplace=True)
            )
            (2): SqueezeExcitation(
              (avgpool): AdaptiveAvgPool2d(output_size=1)
              (fc1): Conv2d(336, 14, kernel_size=(1, 1), stride=(1, 1))
              (fc2): Conv2d(14, 336, kernel_size=(1, 1), stride=(1, 1))
              (activation): SiLU(inplace=True)
              (scale_activation): Sigmoid()
            )
            (3): Conv2dNormActivation(
              (0): Conv2d(336, 56, kernel_size=(1, 1), stride=(1, 1), bias=False)
              (1): BatchNorm2d(56, eps=1e-05, momentum=0.1, affine=True, track_running_stats=True)
            )
          )
          (stochastic_depth): StochasticDepth(p=0.043750000000000004, mode=row)
        )
        (2): MBConv(
          (block): Sequential(
            (0): Conv2dNormActivation(
              (0): Conv2d(56, 336, kernel_size=(1, 1), stride=(1, 1), bias=False)
              (1): BatchNorm2d(336, eps=1e-05, momentum=0.1, affine=True, track_running_stats=True)
              (2): SiLU(inplace=True)
            )
            (1): Conv2dNormActivation(
              (0): Conv2d(336, 336, kernel_size=(5, 5), stride=(1, 1), padding=(2, 2), groups=336, bias=False)
              (1): BatchNorm2d(336, eps=1e-05, momentum=0.1, affine=True, track_running_stats=True)
              (2): SiLU(inplace=True)
            )
            (2): SqueezeExcitation(
              (avgpool): AdaptiveAvgPool2d(output_size=1)
              (fc1): Conv2d(336, 14, kernel_size=(1, 1), stride=(1, 1))
              (fc2): Conv2d(14, 336, kernel_size=(1, 1), stride=(1, 1))
              (activation): SiLU(inplace=True)
              (scale_activation): Sigmoid()
            )
            (3): Conv2dNormActivation(
              (0): Conv2d(336, 56, kernel_size=(1, 1), stride=(1, 1), bias=False)
              (1): BatchNorm2d(56, eps=1e-05, momentum=0.1, affine=True, track_running_stats=True)
            )
          )
          (stochastic_depth): StochasticDepth(p=0.05, mode=row)
        )
        (3): MBConv(
          (block): Sequential(
            (0): Conv2dNormActivation(
              (0): Conv2d(56, 336, kernel_size=(1, 1), stride=(1, 1), bias=False)
              (1): BatchNorm2d(336, eps=1e-05, momentum=0.1, affine=True, track_running_stats=True)
              (2): SiLU(inplace=True)
            )
            (1): Conv2dNormActivation(
              (0): Conv2d(336, 336, kernel_size=(5, 5), stride=(1, 1), padding=(2, 2), groups=336, bias=False)
              (1): BatchNorm2d(336, eps=1e-05, momentum=0.1, affine=True, track_running_stats=True)
              (2): SiLU(inplace=True)
            )
            (2): SqueezeExcitation(
              (avgpool): AdaptiveAvgPool2d(output_size=1)
              (fc1): Conv2d(336, 14, kernel_size=(1, 1), stride=(1, 1))
              (fc2): Conv2d(14, 336, kernel_size=(1, 1), stride=(1, 1))
              (activation): SiLU(inplace=True)
              (scale_activation): Sigmoid()
            )
            (3): Conv2dNormActivation(
              (0): Conv2d(336, 56, kernel_size=(1, 1), stride=(1, 1), bias=False)
              (1): BatchNorm2d(56, eps=1e-05, momentum=0.1, affine=True, track_running_stats=True)
            )
          )
          (stochastic_depth): StochasticDepth(p=0.05625, mode=row)
        )
      )
      (4): Sequential(
        (0): MBConv(
          (block): Sequential(
            (0): Conv2dNormActivation(
              (0): Conv2d(56, 336, kernel_size=(1, 1), stride=(1, 1), bias=False)
              (1): BatchNorm2d(336, eps=1e-05, momentum=0.1, affine=True, track_running_stats=True)
              (2): SiLU(inplace=True)
            )
            (1): Conv2dNormActivation(
              (0): Conv2d(336, 336, kernel_size=(3, 3), stride=(2, 2), padding=(1, 1), groups=336, bias=False)
              (1): BatchNorm2d(336, eps=1e-05, momentum=0.1, affine=True, track_running_stats=True)
              (2): SiLU(inplace=True)
            )
            (2): SqueezeExcitation(
              (avgpool): AdaptiveAvgPool2d(output_size=1)
              (fc1): Conv2d(336, 14, kernel_size=(1, 1), stride=(1, 1))
              (fc2): Conv2d(14, 336, kernel_size=(1, 1), stride=(1, 1))
              (activation): SiLU(inplace=True)
              (scale_activation): Sigmoid()
            )
            (3): Conv2dNormActivation(
              (0): Conv2d(336, 112, kernel_size=(1, 1), stride=(1, 1), bias=False)
              (1): BatchNorm2d(112, eps=1e-05, momentum=0.1, affine=True, track_running_stats=True)
            )
          )
          (stochastic_depth): StochasticDepth(p=0.0625, mode=row)
        )
        (1): MBConv(
          (block): Sequential(
            (0): Conv2dNormActivation(
              (0): Conv2d(112, 672, kernel_size=(1, 1), stride=(1, 1), bias=False)
              (1): BatchNorm2d(672, eps=1e-05, momentum=0.1, affine=True, track_running_stats=True)
              (2): SiLU(inplace=True)
            )
            (1): Conv2dNormActivation(
              (0): Conv2d(672, 672, kernel_size=(3, 3), stride=(1, 1), padding=(1, 1), groups=672, bias=False)
              (1): BatchNorm2d(672, eps=1e-05, momentum=0.1, affine=True, track_running_stats=True)
              (2): SiLU(inplace=True)
            )
            (2): SqueezeExcitation(
              (avgpool): AdaptiveAvgPool2d(output_size=1)
              (fc1): Conv2d(672, 28, kernel_size=(1, 1), stride=(1, 1))
              (fc2): Conv2d(28, 672, kernel_size=(1, 1), stride=(1, 1))
              (activation): SiLU(inplace=True)
              (scale_activation): Sigmoid()
            )
            (3): Conv2dNormActivation(
              (0): Conv2d(672, 112, kernel_size=(1, 1), stride=(1, 1), bias=False)
              (1): BatchNorm2d(112, eps=1e-05, momentum=0.1, affine=True, track_running_stats=True)
            )
          )
          (stochastic_depth): StochasticDepth(p=0.06875, mode=row)
        )
        (2): MBConv(
          (block): Sequential(
            (0): Conv2dNormActivation(
              (0): Conv2d(112, 672, kernel_size=(1, 1), stride=(1, 1), bias=False)
              (1): BatchNorm2d(672, eps=1e-05, momentum=0.1, affine=True, track_running_stats=True)
              (2): SiLU(inplace=True)
            )
            (1): Conv2dNormActivation(
              (0): Conv2d(672, 672, kernel_size=(3, 3), stride=(1, 1), padding=(1, 1), groups=672, bias=False)
              (1): BatchNorm2d(672, eps=1e-05, momentum=0.1, affine=True, track_running_stats=True)
              (2): SiLU(inplace=True)
            )
            (2): SqueezeExcitation(
              (avgpool): AdaptiveAvgPool2d(output_size=1)
              (fc1): Conv2d(672, 28, kernel_size=(1, 1), stride=(1, 1))
              (fc2): Conv2d(28, 672, kernel_size=(1, 1), stride=(1, 1))
              (activation): SiLU(inplace=True)
              (scale_activation): Sigmoid()
            )
            (3): Conv2dNormActivation(
              (0): Conv2d(672, 112, kernel_size=(1, 1), stride=(1, 1), bias=False)
              (1): BatchNorm2d(112, eps=1e-05, momentum=0.1, affine=True, track_running_stats=True)
            )
          )
          (stochastic_depth): StochasticDepth(p=0.07500000000000001, mode=row)
        )
        (3): MBConv(
          (block): Sequential(
            (0): Conv2dNormActivation(
              (0): Conv2d(112, 672, kernel_size=(1, 1), stride=(1, 1), bias=False)
              (1): BatchNorm2d(672, eps=1e-05, momentum=0.1, affine=True, track_running_stats=True)
              (2): SiLU(inplace=True)
            )
            (1): Conv2dNormActivation(
              (0): Conv2d(672, 672, kernel_size=(3, 3), stride=(1, 1), padding=(1, 1), groups=672, bias=False)
              (1): BatchNorm2d(672, eps=1e-05, momentum=0.1, affine=True, track_running_stats=True)
              (2): SiLU(inplace=True)
            )
            (2): SqueezeExcitation(
              (avgpool): AdaptiveAvgPool2d(output_size=1)
              (fc1): Conv2d(672, 28, kernel_size=(1, 1), stride=(1, 1))
              (fc2): Conv2d(28, 672, kernel_size=(1, 1), stride=(1, 1))
              (activation): SiLU(inplace=True)
              (scale_activation): Sigmoid()
            )
            (3): Conv2dNormActivation(
              (0): Conv2d(672, 112, kernel_size=(1, 1), stride=(1, 1), bias=False)
              (1): BatchNorm2d(112, eps=1e-05, momentum=0.1, affine=True, track_running_stats=True)
            )
          )
          (stochastic_depth): StochasticDepth(p=0.08125, mode=row)
        )
        (4): MBConv(
          (block): Sequential(
            (0): Conv2dNormActivation(
              (0): Conv2d(112, 672, kernel_size=(1, 1), stride=(1, 1), bias=False)
              (1): BatchNorm2d(672, eps=1e-05, momentum=0.1, affine=True, track_running_stats=True)
              (2): SiLU(inplace=True)
            )
            (1): Conv2dNormActivation(
              (0): Conv2d(672, 672, kernel_size=(3, 3), stride=(1, 1), padding=(1, 1), groups=672, bias=False)
              (1): BatchNorm2d(672, eps=1e-05, momentum=0.1, affine=True, track_running_stats=True)
              (2): SiLU(inplace=True)
            )
            (2): SqueezeExcitation(
              (avgpool): AdaptiveAvgPool2d(output_size=1)
              (fc1): Conv2d(672, 28, kernel_size=(1, 1), stride=(1, 1))
              (fc2): Conv2d(28, 672, kernel_size=(1, 1), stride=(1, 1))
              (activation): SiLU(inplace=True)
              (scale_activation): Sigmoid()
            )
            (3): Conv2dNormActivation(
              (0): Conv2d(672, 112, kernel_size=(1, 1), stride=(1, 1), bias=False)
              (1): BatchNorm2d(112, eps=1e-05, momentum=0.1, affine=True, track_running_stats=True)
            )
          )
          (stochastic_depth): StochasticDepth(p=0.08750000000000001, mode=row)
        )
        (5): MBConv(
          (block): Sequential(
            (0): Conv2dNormActivation(
              (0): Conv2d(112, 672, kernel_size=(1, 1), stride=(1, 1), bias=False)
              (1): BatchNorm2d(672, eps=1e-05, momentum=0.1, affine=True, track_running_stats=True)
              (2): SiLU(inplace=True)
            )
            (1): Conv2dNormActivation(
              (0): Conv2d(672, 672, kernel_size=(3, 3), stride=(1, 1), padding=(1, 1), groups=672, bias=False)
              (1): BatchNorm2d(672, eps=1e-05, momentum=0.1, affine=True, track_running_stats=True)
              (2): SiLU(inplace=True)
            )
            (2): SqueezeExcitation(
              (avgpool): AdaptiveAvgPool2d(output_size=1)
              (fc1): Conv2d(672, 28, kernel_size=(1, 1), stride=(1, 1))
              (fc2): Conv2d(28, 672, kernel_size=(1, 1), stride=(1, 1))
              (activation): SiLU(inplace=True)
              (scale_activation): Sigmoid()
            )
            (3): Conv2dNormActivation(
              (0): Conv2d(672, 112, kernel_size=(1, 1), stride=(1, 1), bias=False)
              (1): BatchNorm2d(112, eps=1e-05, momentum=0.1, affine=True, track_running_stats=True)
            )
          )
          (stochastic_depth): StochasticDepth(p=0.09375, mode=row)
        )
      )
      (5): Sequential(
        (0): MBConv(
          (block): Sequential(
            (0): Conv2dNormActivation(
              (0): Conv2d(112, 672, kernel_size=(1, 1), stride=(1, 1), bias=False)
              (1): BatchNorm2d(672, eps=1e-05, momentum=0.1, affine=True, track_running_stats=True)
              (2): SiLU(inplace=True)
            )
            (1): Conv2dNormActivation(
              (0): Conv2d(672, 672, kernel_size=(5, 5), stride=(1, 1), padding=(2, 2), groups=672, bias=False)
              (1): BatchNorm2d(672, eps=1e-05, momentum=0.1, affine=True, track_running_stats=True)
              (2): SiLU(inplace=True)
            )
            (2): SqueezeExcitation(
              (avgpool): AdaptiveAvgPool2d(output_size=1)
              (fc1): Conv2d(672, 28, kernel_size=(1, 1), stride=(1, 1))
              (fc2): Conv2d(28, 672, kernel_size=(1, 1), stride=(1, 1))
              (activation): SiLU(inplace=True)
              (scale_activation): Sigmoid()
            )
            (3): Conv2dNormActivation(
              (0): Conv2d(672, 160, kernel_size=(1, 1), stride=(1, 1), bias=False)
              (1): BatchNorm2d(160, eps=1e-05, momentum=0.1, affine=True, track_running_stats=True)
            )
          )
          (stochastic_depth): StochasticDepth(p=0.1, mode=row)
        )
        (1): MBConv(
          (block): Sequential(
            (0): Conv2dNormActivation(
              (0): Conv2d(160, 960, kernel_size=(1, 1), stride=(1, 1), bias=False)
              (1): BatchNorm2d(960, eps=1e-05, momentum=0.1, affine=True, track_running_stats=True)
              (2): SiLU(inplace=True)
            )
            (1): Conv2dNormActivation(
              (0): Conv2d(960, 960, kernel_size=(5, 5), stride=(1, 1), padding=(2, 2), groups=960, bias=False)
              (1): BatchNorm2d(960, eps=1e-05, momentum=0.1, affine=True, track_running_stats=True)
              (2): SiLU(inplace=True)
            )
            (2): SqueezeExcitation(
              (avgpool): AdaptiveAvgPool2d(output_size=1)
              (fc1): Conv2d(960, 40, kernel_size=(1, 1), stride=(1, 1))
              (fc2): Conv2d(40, 960, kernel_size=(1, 1), stride=(1, 1))
              (activation): SiLU(inplace=True)
              (scale_activation): Sigmoid()
            )
            (3): Conv2dNormActivation(
              (0): Conv2d(960, 160, kernel_size=(1, 1), stride=(1, 1), bias=False)
              (1): BatchNorm2d(160, eps=1e-05, momentum=0.1, affine=True, track_running_stats=True)
            )
          )
          (stochastic_depth): StochasticDepth(p=0.10625000000000001, mode=row)
        )
        (2): MBConv(
          (block): Sequential(
            (0): Conv2dNormActivation(
              (0): Conv2d(160, 960, kernel_size=(1, 1), stride=(1, 1), bias=False)
              (1): BatchNorm2d(960, eps=1e-05, momentum=0.1, affine=True, track_running_stats=True)
              (2): SiLU(inplace=True)
            )
            (1): Conv2dNormActivation(
              (0): Conv2d(960, 960, kernel_size=(5, 5), stride=(1, 1), padding=(2, 2), groups=960, bias=False)
              (1): BatchNorm2d(960, eps=1e-05, momentum=0.1, affine=True, track_running_stats=True)
              (2): SiLU(inplace=True)
            )
            (2): SqueezeExcitation(
              (avgpool): AdaptiveAvgPool2d(output_size=1)
              (fc1): Conv2d(960, 40, kernel_size=(1, 1), stride=(1, 1))
              (fc2): Conv2d(40, 960, kernel_size=(1, 1), stride=(1, 1))
              (activation): SiLU(inplace=True)
              (scale_activation): Sigmoid()
            )
            (3): Conv2dNormActivation(
              (0): Conv2d(960, 160, kernel_size=(1, 1), stride=(1, 1), bias=False)
              (1): BatchNorm2d(160, eps=1e-05, momentum=0.1, affine=True, track_running_stats=True)
            )
          )
          (stochastic_depth): StochasticDepth(p=0.1125, mode=row)
        )
        (3): MBConv(
          (block): Sequential(
            (0): Conv2dNormActivation(
              (0): Conv2d(160, 960, kernel_size=(1, 1), stride=(1, 1), bias=False)
              (1): BatchNorm2d(960, eps=1e-05, momentum=0.1, affine=True, track_running_stats=True)
              (2): SiLU(inplace=True)
            )
            (1): Conv2dNormActivation(
              (0): Conv2d(960, 960, kernel_size=(5, 5), stride=(1, 1), padding=(2, 2), groups=960, bias=False)
              (1): BatchNorm2d(960, eps=1e-05, momentum=0.1, affine=True, track_running_stats=True)
              (2): SiLU(inplace=True)
            )
            (2): SqueezeExcitation(
              (avgpool): AdaptiveAvgPool2d(output_size=1)
              (fc1): Conv2d(960, 40, kernel_size=(1, 1), stride=(1, 1))
              (fc2): Conv2d(40, 960, kernel_size=(1, 1), stride=(1, 1))
              (activation): SiLU(inplace=True)
              (scale_activation): Sigmoid()
            )
            (3): Conv2dNormActivation(
              (0): Conv2d(960, 160, kernel_size=(1, 1), stride=(1, 1), bias=False)
              (1): BatchNorm2d(160, eps=1e-05, momentum=0.1, affine=True, track_running_stats=True)
            )
          )
          (stochastic_depth): StochasticDepth(p=0.11875000000000001, mode=row)
        )
        (4): MBConv(
          (block): Sequential(
            (0): Conv2dNormActivation(
              (0): Conv2d(160, 960, kernel_size=(1, 1), stride=(1, 1), bias=False)
              (1): BatchNorm2d(960, eps=1e-05, momentum=0.1, affine=True, track_running_stats=True)
              (2): SiLU(inplace=True)
            )
            (1): Conv2dNormActivation(
              (0): Conv2d(960, 960, kernel_size=(5, 5), stride=(1, 1), padding=(2, 2), groups=960, bias=False)
              (1): BatchNorm2d(960, eps=1e-05, momentum=0.1, affine=True, track_running_stats=True)
              (2): SiLU(inplace=True)
            )
            (2): SqueezeExcitation(
              (avgpool): AdaptiveAvgPool2d(output_size=1)
              (fc1): Conv2d(960, 40, kernel_size=(1, 1), stride=(1, 1))
              (fc2): Conv2d(40, 960, kernel_size=(1, 1), stride=(1, 1))
              (activation): SiLU(inplace=True)
              (scale_activation): Sigmoid()
            )
            (3): Conv2dNormActivation(
              (0): Conv2d(960, 160, kernel_size=(1, 1), stride=(1, 1), bias=False)
              (1): BatchNorm2d(160, eps=1e-05, momentum=0.1, affine=True, track_running_stats=True)
            )
          )
          (stochastic_depth): StochasticDepth(p=0.125, mode=row)
        )
        (5): MBConv(
          (block): Sequential(
            (0): Conv2dNormActivation(
              (0): Conv2d(160, 960, kernel_size=(1, 1), stride=(1, 1), bias=False)
              (1): BatchNorm2d(960, eps=1e-05, momentum=0.1, affine=True, track_running_stats=True)
              (2): SiLU(inplace=True)
            )
            (1): Conv2dNormActivation(
              (0): Conv2d(960, 960, kernel_size=(5, 5), stride=(1, 1), padding=(2, 2), groups=960, bias=False)
              (1): BatchNorm2d(960, eps=1e-05, momentum=0.1, affine=True, track_running_stats=True)
              (2): SiLU(inplace=True)
            )
            (2): SqueezeExcitation(
              (avgpool): AdaptiveAvgPool2d(output_size=1)
              (fc1): Conv2d(960, 40, kernel_size=(1, 1), stride=(1, 1))
              (fc2): Conv2d(40, 960, kernel_size=(1, 1), stride=(1, 1))
              (activation): SiLU(inplace=True)
              (scale_activation): Sigmoid()
            )
            (3): Conv2dNormActivation(
              (0): Conv2d(960, 160, kernel_size=(1, 1), stride=(1, 1), bias=False)
              (1): BatchNorm2d(160, eps=1e-05, momentum=0.1, affine=True, track_running_stats=True)
            )
          )
          (stochastic_depth): StochasticDepth(p=0.13125, mode=row)
        )
      )
      (6): Sequential(
        (0): MBConv(
          (block): Sequential(
            (0): Conv2dNormActivation(
              (0): Conv2d(160, 960, kernel_size=(1, 1), stride=(1, 1), bias=False)
              (1): BatchNorm2d(960, eps=1e-05, momentum=0.1, affine=True, track_running_stats=True)
              (2): SiLU(inplace=True)
            )
            (1): Conv2dNormActivation(
              (0): Conv2d(960, 960, kernel_size=(5, 5), stride=(2, 2), padding=(2, 2), groups=960, bias=False)
              (1): BatchNorm2d(960, eps=1e-05, momentum=0.1, affine=True, track_running_stats=True)
              (2): SiLU(inplace=True)
            )
            (2): SqueezeExcitation(
              (avgpool): AdaptiveAvgPool2d(output_size=1)
              (fc1): Conv2d(960, 40, kernel_size=(1, 1), stride=(1, 1))
              (fc2): Conv2d(40, 960, kernel_size=(1, 1), stride=(1, 1))
              (activation): SiLU(inplace=True)
              (scale_activation): Sigmoid()
            )
            (3): Conv2dNormActivation(
              (0): Conv2d(960, 272, kernel_size=(1, 1), stride=(1, 1), bias=False)
              (1): BatchNorm2d(272, eps=1e-05, momentum=0.1, affine=True, track_running_stats=True)
            )
          )
          (stochastic_depth): StochasticDepth(p=0.1375, mode=row)
        )
        (1): MBConv(
          (block): Sequential(
            (0): Conv2dNormActivation(
              (0): Conv2d(272, 1632, kernel_size=(1, 1), stride=(1, 1), bias=False)
              (1): BatchNorm2d(1632, eps=1e-05, momentum=0.1, affine=True, track_running_stats=True)
              (2): SiLU(inplace=True)
            )
            (1): Conv2dNormActivation(
              (0): Conv2d(1632, 1632, kernel_size=(5, 5), stride=(1, 1), padding=(2, 2), groups=1632, bias=False)
              (1): BatchNorm2d(1632, eps=1e-05, momentum=0.1, affine=True, track_running_stats=True)
              (2): SiLU(inplace=True)
            )
            (2): SqueezeExcitation(
              (avgpool): AdaptiveAvgPool2d(output_size=1)
              (fc1): Conv2d(1632, 68, kernel_size=(1, 1), stride=(1, 1))
              (fc2): Conv2d(68, 1632, kernel_size=(1, 1), stride=(1, 1))
              (activation): SiLU(inplace=True)
              (scale_activation): Sigmoid()
            )
            (3): Conv2dNormActivation(
              (0): Conv2d(1632, 272, kernel_size=(1, 1), stride=(1, 1), bias=False)
              (1): BatchNorm2d(272, eps=1e-05, momentum=0.1, affine=True, track_running_stats=True)
            )
          )
          (stochastic_depth): StochasticDepth(p=0.14375000000000002, mode=row)
        )
        (2): MBConv(
          (block): Sequential(
            (0): Conv2dNormActivation(
              (0): Conv2d(272, 1632, kernel_size=(1, 1), stride=(1, 1), bias=False)
              (1): BatchNorm2d(1632, eps=1e-05, momentum=0.1, affine=True, track_running_stats=True)
              (2): SiLU(inplace=True)
            )
            (1): Conv2dNormActivation(
              (0): Conv2d(1632, 1632, kernel_size=(5, 5), stride=(1, 1), padding=(2, 2), groups=1632, bias=False)
              (1): BatchNorm2d(1632, eps=1e-05, momentum=0.1, affine=True, track_running_stats=True)
              (2): SiLU(inplace=True)
            )
            (2): SqueezeExcitation(
              (avgpool): AdaptiveAvgPool2d(output_size=1)
              (fc1): Conv2d(1632, 68, kernel_size=(1, 1), stride=(1, 1))
              (fc2): Conv2d(68, 1632, kernel_size=(1, 1), stride=(1, 1))
              (activation): SiLU(inplace=True)
              (scale_activation): Sigmoid()
            )
            (3): Conv2dNormActivation(
              (0): Conv2d(1632, 272, kernel_size=(1, 1), stride=(1, 1), bias=False)
              (1): BatchNorm2d(272, eps=1e-05, momentum=0.1, affine=True, track_running_stats=True)
            )
          )
          (stochastic_depth): StochasticDepth(p=0.15000000000000002, mode=row)
        )
        (3): MBConv(
          (block): Sequential(
            (0): Conv2dNormActivation(
              (0): Conv2d(272, 1632, kernel_size=(1, 1), stride=(1, 1), bias=False)
              (1): BatchNorm2d(1632, eps=1e-05, momentum=0.1, affine=True, track_running_stats=True)
              (2): SiLU(inplace=True)
            )
            (1): Conv2dNormActivation(
              (0): Conv2d(1632, 1632, kernel_size=(5, 5), stride=(1, 1), padding=(2, 2), groups=1632, bias=False)
              (1): BatchNorm2d(1632, eps=1e-05, momentum=0.1, affine=True, track_running_stats=True)
              (2): SiLU(inplace=True)
            )
            (2): SqueezeExcitation(
              (avgpool): AdaptiveAvgPool2d(output_size=1)
              (fc1): Conv2d(1632, 68, kernel_size=(1, 1), stride=(1, 1))
              (fc2): Conv2d(68, 1632, kernel_size=(1, 1), stride=(1, 1))
              (activation): SiLU(inplace=True)
              (scale_activation): Sigmoid()
            )
            (3): Conv2dNormActivation(
              (0): Conv2d(1632, 272, kernel_size=(1, 1), stride=(1, 1), bias=False)
              (1): BatchNorm2d(272, eps=1e-05, momentum=0.1, affine=True, track_running_stats=True)
            )
          )
          (stochastic_depth): StochasticDepth(p=0.15625, mode=row)
        )
        (4): MBConv(
          (block): Sequential(
            (0): Conv2dNormActivation(
              (0): Conv2d(272, 1632, kernel_size=(1, 1), stride=(1, 1), bias=False)
              (1): BatchNorm2d(1632, eps=1e-05, momentum=0.1, affine=True, track_running_stats=True)
              (2): SiLU(inplace=True)
            )
            (1): Conv2dNormActivation(
              (0): Conv2d(1632, 1632, kernel_size=(5, 5), stride=(1, 1), padding=(2, 2), groups=1632, bias=False)
              (1): BatchNorm2d(1632, eps=1e-05, momentum=0.1, affine=True, track_running_stats=True)
              (2): SiLU(inplace=True)
            )
            (2): SqueezeExcitation(
              (avgpool): AdaptiveAvgPool2d(output_size=1)
              (fc1): Conv2d(1632, 68, kernel_size=(1, 1), stride=(1, 1))
              (fc2): Conv2d(68, 1632, kernel_size=(1, 1), stride=(1, 1))
              (activation): SiLU(inplace=True)
              (scale_activation): Sigmoid()
            )
            (3): Conv2dNormActivation(
              (0): Conv2d(1632, 272, kernel_size=(1, 1), stride=(1, 1), bias=False)
              (1): BatchNorm2d(272, eps=1e-05, momentum=0.1, affine=True, track_running_stats=True)
            )
          )
          (stochastic_depth): StochasticDepth(p=0.1625, mode=row)
        )
        (5): MBConv(
          (block): Sequential(
            (0): Conv2dNormActivation(
              (0): Conv2d(272, 1632, kernel_size=(1, 1), stride=(1, 1), bias=False)
              (1): BatchNorm2d(1632, eps=1e-05, momentum=0.1, affine=True, track_running_stats=True)
              (2): SiLU(inplace=True)
            )
            (1): Conv2dNormActivation(
              (0): Conv2d(1632, 1632, kernel_size=(5, 5), stride=(1, 1), padding=(2, 2), groups=1632, bias=False)
              (1): BatchNorm2d(1632, eps=1e-05, momentum=0.1, affine=True, track_running_stats=True)
              (2): SiLU(inplace=True)
            )
            (2): SqueezeExcitation(
              (avgpool): AdaptiveAvgPool2d(output_size=1)
              (fc1): Conv2d(1632, 68, kernel_size=(1, 1), stride=(1, 1))
              (fc2): Conv2d(68, 1632, kernel_size=(1, 1), stride=(1, 1))
              (activation): SiLU(inplace=True)
              (scale_activation): Sigmoid()
            )
            (3): Conv2dNormActivation(
              (0): Conv2d(1632, 272, kernel_size=(1, 1), stride=(1, 1), bias=False)
              (1): BatchNorm2d(272, eps=1e-05, momentum=0.1, affine=True, track_running_stats=True)
            )
          )
          (stochastic_depth): StochasticDepth(p=0.16875, mode=row)
        )
        (6): MBConv(
          (block): Sequential(
            (0): Conv2dNormActivation(
              (0): Conv2d(272, 1632, kernel_size=(1, 1), stride=(1, 1), bias=False)
              (1): BatchNorm2d(1632, eps=1e-05, momentum=0.1, affine=True, track_running_stats=True)
              (2): SiLU(inplace=True)
            )
            (1): Conv2dNormActivation(
              (0): Conv2d(1632, 1632, kernel_size=(5, 5), stride=(1, 1), padding=(2, 2), groups=1632, bias=False)
              (1): BatchNorm2d(1632, eps=1e-05, momentum=0.1, affine=True, track_running_stats=True)
              (2): SiLU(inplace=True)
            )
            (2): SqueezeExcitation(
              (avgpool): AdaptiveAvgPool2d(output_size=1)
              (fc1): Conv2d(1632, 68, kernel_size=(1, 1), stride=(1, 1))
              (fc2): Conv2d(68, 1632, kernel_size=(1, 1), stride=(1, 1))
              (activation): SiLU(inplace=True)
              (scale_activation): Sigmoid()
            )
            (3): Conv2dNormActivation(
              (0): Conv2d(1632, 272, kernel_size=(1, 1), stride=(1, 1), bias=False)
              (1): BatchNorm2d(272, eps=1e-05, momentum=0.1, affine=True, track_running_stats=True)
            )
          )
          (stochastic_depth): StochasticDepth(p=0.17500000000000002, mode=row)
        )
        (7): MBConv(
          (block): Sequential(
            (0): Conv2dNormActivation(
              (0): Conv2d(272, 1632, kernel_size=(1, 1), stride=(1, 1), bias=False)
              (1): BatchNorm2d(1632, eps=1e-05, momentum=0.1, affine=True, track_running_stats=True)
              (2): SiLU(inplace=True)
            )
            (1): Conv2dNormActivation(
              (0): Conv2d(1632, 1632, kernel_size=(5, 5), stride=(1, 1), padding=(2, 2), groups=1632, bias=False)
              (1): BatchNorm2d(1632, eps=1e-05, momentum=0.1, affine=True, track_running_stats=True)
              (2): SiLU(inplace=True)
            )
            (2): SqueezeExcitation(
              (avgpool): AdaptiveAvgPool2d(output_size=1)
              (fc1): Conv2d(1632, 68, kernel_size=(1, 1), stride=(1, 1))
              (fc2): Conv2d(68, 1632, kernel_size=(1, 1), stride=(1, 1))
              (activation): SiLU(inplace=True)
              (scale_activation): Sigmoid()
            )
            (3): Conv2dNormActivation(
              (0): Conv2d(1632, 272, kernel_size=(1, 1), stride=(1, 1), bias=False)
              (1): BatchNorm2d(272, eps=1e-05, momentum=0.1, affine=True, track_running_stats=True)
            )
          )
          (stochastic_depth): StochasticDepth(p=0.18125000000000002, mode=row)
        )
      )
      (7): Sequential(
        (0): MBConv(
          (block): Sequential(
            (0): Conv2dNormActivation(
              (0): Conv2d(272, 1632, kernel_size=(1, 1), stride=(1, 1), bias=False)
              (1): BatchNorm2d(1632, eps=1e-05, momentum=0.1, affine=True, track_running_stats=True)
              (2): SiLU(inplace=True)
            )
            (1): Conv2dNormActivation(
              (0): Conv2d(1632, 1632, kernel_size=(3, 3), stride=(1, 1), padding=(1, 1), groups=1632, bias=False)
              (1): BatchNorm2d(1632, eps=1e-05, momentum=0.1, affine=True, track_running_stats=True)
              (2): SiLU(inplace=True)
            )
            (2): SqueezeExcitation(
              (avgpool): AdaptiveAvgPool2d(output_size=1)
              (fc1): Conv2d(1632, 68, kernel_size=(1, 1), stride=(1, 1))
              (fc2): Conv2d(68, 1632, kernel_size=(1, 1), stride=(1, 1))
              (activation): SiLU(inplace=True)
              (scale_activation): Sigmoid()
            )
            (3): Conv2dNormActivation(
              (0): Conv2d(1632, 448, kernel_size=(1, 1), stride=(1, 1), bias=False)
              (1): BatchNorm2d(448, eps=1e-05, momentum=0.1, affine=True, track_running_stats=True)
            )
          )
          (stochastic_depth): StochasticDepth(p=0.1875, mode=row)
        )
        (1): MBConv(
          (block): Sequential(
            (0): Conv2dNormActivation(
              (0): Conv2d(448, 2688, kernel_size=(1, 1), stride=(1, 1), bias=False)
              (1): BatchNorm2d(2688, eps=1e-05, momentum=0.1, affine=True, track_running_stats=True)
              (2): SiLU(inplace=True)
            )
            (1): Conv2dNormActivation(
              (0): Conv2d(2688, 2688, kernel_size=(3, 3), stride=(1, 1), padding=(1, 1), groups=2688, bias=False)
              (1): BatchNorm2d(2688, eps=1e-05, momentum=0.1, affine=True, track_running_stats=True)
              (2): SiLU(inplace=True)
            )
            (2): SqueezeExcitation(
              (avgpool): AdaptiveAvgPool2d(output_size=1)
              (fc1): Conv2d(2688, 112, kernel_size=(1, 1), stride=(1, 1))
              (fc2): Conv2d(112, 2688, kernel_size=(1, 1), stride=(1, 1))
              (activation): SiLU(inplace=True)
              (scale_activation): Sigmoid()
            )
            (3): Conv2dNormActivation(
              (0): Conv2d(2688, 448, kernel_size=(1, 1), stride=(1, 1), bias=False)
              (1): BatchNorm2d(448, eps=1e-05, momentum=0.1, affine=True, track_running_stats=True)
            )
          )
          (stochastic_depth): StochasticDepth(p=0.19375, mode=row)
        )
      )
      (8): Conv2dNormActivation(
        (0): Conv2d(448, 1792, kernel_size=(1, 1), stride=(1, 1), bias=False)
        (1): BatchNorm2d(1792, eps=1e-05, momentum=0.1, affine=True, track_running_stats=True)
        (2): SiLU(inplace=True)
      )
    )
    (avgpool): AdaptiveAvgPool2d(output_size=1)
    (classifier): Identity()
  )
  (channel_attention): ChannelAttention(
    (avg_pool): AdaptiveAvgPool2d(output_size=1)
    (max_pool): AdaptiveMaxPool2d(output_size=1)
    (fc1): Conv2d(1792, 112, kernel_size=(1, 1), stride=(1, 1), bias=False)
    (relu1): ReLU()
    (fc2): Conv2d(112, 1792, kernel_size=(1, 1), stride=(1, 1), bias=False)
    (sigmoid): Sigmoid()
  )
  (spatial_attention): SpatialAttention(
    (conv1): Conv2d(2, 1, kernel_size=(7, 7), stride=(1, 1), padding=(3, 3), bias=False)
    (sigmoid): Sigmoid()
  )
  (fc): Sequential(
    (0): Linear(in_features=1792, out_features=256, bias=True)
    (1): ReLU(inplace=True)
    (2): Dropout(p=0.65, inplace=False)
    (3): Linear(in_features=256, out_features=128, bias=True)
    (4): ReLU(inplace=True)
    (5): Dropout(p=0.65, inplace=False)
    (6): Linear(in_features=128, out_features=5, bias=True)
  )
) 

Pipeline Mode: single
Device: cuda

Epoch 1/15
Training: 100%|██████████| 72/72 [00:35<00:00,  2.01 batch/s, lr=8.0e-05, Loss=1.0064]
[Train] Kappa: 0.0587 Accuracy: 0.2106 Precision: 0.3700 Recall: 0.2106 Loss: 1.0286
[Train] Class 0: Precision: 1.0000, Recall: 0.0028
[Train] Class 1: Precision: 0.2382, Recall: 0.2667
[Train] Class 2: Precision: 0.1913, Recall: 0.3917
…
